Sample of model Architecture:
================================

MultiModalPipeline(
  (embed): Embedding(257153, 128) 
  (imageComponent): SiglipTransformer(
    (embed): SiglipVisionEmbedding(
      (patchConv): Conv2d(3, 128, kernel_size=(1, 1), stride=(1, 1))
      (positionEmbeddings): Embedding(784, 128)
    )
    (layers): ModuleList(
      (0): SiglipVisionEncoder(
        (norm1): LayerNorm((128,), eps=1e-05, elementwise_affine=True)
        (att): SiglipSelfAttention(
          (wq): Linear(in_features=128, out_features=128, bias=True)
          (wk): Linear(in_features=128, out_features=128, bias=True)
          (wv): Linear(in_features=128, out_features=128, bias=True)
          (wo): Linear(in_features=128, out_features=128, bias=True)
        )
        (norm2): LayerNorm((128,), eps=1e-05, elementwise_affine=True)
        (FF): SiglipFeedForward(
          (fc1): Linear(in_features=128, out_features=128, bias=True)
          (fc2): Linear(in_features=128, out_features=128, bias=True)
        )
      )
    )
    (normFinal): LayerNorm((128,), eps=1e-05, elementwise_affine=True)
  )
  (projected): MultiModalProjector(
    (project): Linear(in_features=128, out_features=128, bias=True)
  )
  (logits): MultiModalTransformer(
    (decoderLayers): ModuleList(
      (0): TextDecoder(
        (att): SelfAttentionText(
          (wq): Linear(in_features=128, out_features=128, bias=True)
          (wk): Linear(in_features=128, out_features=128, bias=True)
          (wv): Linear(in_features=128, out_features=128, bias=True)
          (wo): Linear(in_features=128, out_features=128, bias=True)
          (rotaryEmb): RotaryEmbed()
        )
        (norm1): RMSNorm((128,), eps=1e-05, elementwise_affine=True)
        (FF): GemmaFeedForward(
          (gate_proj): Linear(in_features=128, out_features=128, bias=False)
          (up_proj): Linear(in_features=128, out_features=128, bias=False)
          (down_proj): Linear(in_features=128, out_features=128, bias=False)
        )
        (norm2): RMSNorm((128,), eps=1e-05, elementwise_affine=True)
      )
    )
    (normFinal): RMSNorm((128,), eps=1e-05, elementwise_affine=True)
    (logits): Linear(in_features=128, out_features=257153, bias=True)
  )
)

=========================================
Model Parameters for above architecture:
=========================================

embed.weight torch.Size([257153, 128])
257153 x 128 = 32915584 total parameters for embed.weight

imageComponent.embed.patchConv.weight torch.Size([512, 3, 1, 1])
512 x 3 x 1 x 1 = 1536 total parameters for imageComponent.embed.patchConv.weight
…
